attached_assets/heart_disease_model.tflite (tflite, 14104 bytes, 5 tensors)

arith.constant f4 [1, 32]
000000 bc f5 ec 3e 76 2d 15 3f e6 38 52 3f 5f fb d3 3e
       0.4628123 0.5827249 0.8211807 0.41402718
000010 f0 66 5b bf b7 b5 2a bf f1 61 ad 3e bd 6e 00 3f
       -0.85703945 -0.66683525 0.33863786 0.50168973
000020 66 9c 35 3f 27 11 2c 3f 2d f8 bd be a6 1d e6 be
       0.7094177 0.6721367 -0.37103406 -0.44944495
000030 45 1e ee be 3c dd 0f 3f 18 62 08 bf 07 11 3e bf
       -0.4650747 0.5619695 -0.5327468 -0.7424473
000040 6c 10 0c bf 3a 85 5b bf 06 5f 8f 3e bb bb 30 3f
       -0.5471256 -0.8575016 0.28002185 0.69036454
000050 92 e7 af be e1 c6 9a be b0 07 06 3f 89 80 18 3f
       -0.34356362 -0.30229858 0.5235548 0.5957113
000060 e7 48 82 3e e0 c9 21 bf e5 2b 35 bf 40 1d 17 3f
       0.25446245 -0.6319866 -0.707701 0.59029007
000070 2e 11 96 be 13 e9 0b 3f 09 f0 2d bf 54 60 e0 be
       -0.29309982 0.5465252 -0.6794439 -0.43823493

arith.constant1 f4 [32, 64]
000000 00 7a 10 3e b1 a3 8b 3e 52 40 19 3d 46 d2 ae be
       0.1410904 0.27273324 0.037414856 -0.341448
000010 8b 82 54 3c 55 ea a2 3d 3b 89 5f 3d 50 16 62 3c
       0.012970577 0.079548515 0.054574233 0.013799265
000020 f2 d5 c6 bd 7a 7a a1 3e 37 5e 64 be de 55 b8 3d
       -0.097087756 0.31538755 -0.22301565 0.09000753
000030 5f ea 44 3e c5 d7 9a 3c e0 cd f8 bd 85 1f 12 3e
       0.1923003 0.018901715 -0.121486425 0.14269836
000040 1a 3b 89 3e 1e 33 7e 3e 50 2f f4 3d cc be 58 be
       0.26802903 0.24824187 0.11923087 -0.21166533
000050 8a 60 8b 3e 12 91 72 3c 34 f7 ad 3e ab 97 1c 3e
       0.2722209 0.014805095 0.33977664 0.15292232
000060 8e 41 81 be df 7f 94 3d 31 f2 92 3d d6 0f 87 be
       -0.25245327 0.07250952 0.071751006 -0.2637927
000070 0c 6e 34 3e a2 fe 1f 3e ff 1e 6b 3e 9e 31 6e be
       0.17620105 0.15624478 0.22961043 -0.23261115
000080 6c da 9f 3e 75 32 b9 be 5e 2d 4f 3d db 9d 75 be
       0.3122133 -0.36171308 0.050580375 -0.23985998
000090 a1 b6 59 be 20 e0 0c 3e 4a 13 c8 bd 06 97 24 3e
       -0.21261074 0.13757372 -0.09769304 0.16073236
0000a0 76 75 92 bd bd c6 3b be 87 62 42 be 7e 6a 47 3d
       -0.0715131 -0.18337531 -0.18982898 0.048685543
0000b0 8d b7 7d 3e 21 f9 e1 bd f6 00 af be c7 37 0f bd
       0.2477705 -0.11033846 -0.3418042 -0.034965303
0000c0 85 99 82 3e c0 f7 37 3e ba c3 39 be 47 38 e9 bd
       0.2550775 0.17965603 -0.1814107 -0.11387687
0000d0 1d 1c 2d 3e 06 31 0a 3e 26 b7 9e be e7 7f 12 3e
       0.16905256 0.13495263 -0.30999106 0.14306603
0000e0 ce 7b 52 bc ca 12 3f 3e 35 6a 46 be 5a ca b7 be
       -0.0128469 0.18659511 -0.19376452 -0.3589657
0000f0 b6 4f c2 bd 1c 12 95 3d ca 4e 1d 3e d8 41 67 3e
       -0.0948786 0.07278845 0.15362087 0.22583711
000100 3b b5 d2 3c aa be cc 3e 27 b0 c4 bd 83 99 e0 be
       0.025721183 0.39989215 -0.09603911 -0.4386712
000110 1e d4 cc 3e 03 43 b4 3c d6 24 9c 3e c1 be 98 bd
       0.40005583 0.02200461 0.30496854 -0.074582584
000120 9a 56 96 be 74 c8 5b be c7 ec ba 3d 66 54 46 3d
       -0.29362947 -0.21463186 0.09127193 0.048420332
000130 b6 f7 89 3d 51 eb b9 be 00 10 bd 3c df 5b ad 3c
       0.067367 -0.36312345 0.023078918 0.021161972
000140 1f 50 a0 3d b8 82 cb 3e dd 6a b2 bd 44 32 a2 be
       0.07827782 0.39748168 -0.08711789 -0.31678975
000150 d4 a9 0f bc 5d 40 3d bc 4f dc a0 3e 00 21 37 be
       -0.0087685175 -0.01155099 0.31418082 -0.17883682
000160 df 50 7b be 00 1d 0b be 1d 81 05 3e 12 17 0d 3e
       -0.24542569 -0.13585281 0.13037534 0.13778332
000170 15 39 ac 3e 5d c8 7a 3c a7 bc 4b 3e c2 e6 8b bd
       0.336373 0.015306559 0.19896184 -0.06831123
000180 fe 49 6e be f1 7d 63 3e 70 7d bd bd e9 a0 95 3c
       -0.23270413 0.22216012 -0.09252441 0.018265205
000190 2e 0f 7e be 70 35 64 3e 67 2c 03 3e c9 8f 97 bc
       -0.24810478 0.2228601 0.12809907 -0.01850118
0001a0 b3 fc 8f be 5b 65 7d 3e a6 3f 23 3c cd 15 a9 3e
       -0.28122482 0.24745695 0.009963905 0.33024445
0001b0 c6 39 4f 3d e9 56 80 3e cc db b1 be a6 51 e9 3b
       0.050592206 0.25066307 -0.34738004 0.007120329
0001c0 0b 40 b2 3c 5a d6 89 3c a6 49 aa be 83 5f ea 3e
       0.021759054 0.016825844 -0.33259314 0.45775995
0001d0 97 c7 94 be c3 59 2e bd 65 dc e3 be 90 39 13 3e
       -0.29058525 -0.042566072 -0.44504085 0.14377427
0001e0 e0 2f de 3c da 9b 4c 3d 16 12 50 3d 6b ca 28 3e
       0.027122438 0.04995332 0.050798498 0.16483466
0001f0 55 03 eb 3e e2 9a 9d be 9d 1f b3 3e 15 f9 73 3e
       0.4590098 -0.3078223 0.34985057 0.23825486
000200 f0 ca f8 bd 6e 79 fc bd 6d e6 03 bf 11 f2 34 3e
       -0.12148082 -0.123278484 -0.51523477 0.17670466
000210 b1 69 66 3e 4c 4b 7a 3e e4 63 5b 3d 08 af 3f 3e
       0.22501256 0.24442786 0.05356206 0.18719113
000220 76 19 cd bc 77 2d 70 be 29 00 2c 3d fc a3 80 3d
       -0.025036555 -0.23454843 0.04199234 0.062812775
000230 1f 4d c8 3e 39 7e 6e 3d a0 9b 69 be 47 b0 3c 3c
       0.3912134 0.058225844 -0.22813272 0.011516637
000240 df b1 b4 3e 31 e1 22 bd 2d d2 e4 3d 24 8e 17 3e
       0.35291955 -0.03976554 0.111729 0.14800316
000250 e5 b8 01 bd e5 92 ac bb 5b 1f cd 3d 47 6d 81 be
       -0.03167047 -0.0052665346 0.10015746 -0.25278684
000260 ef 64 65 3d 07 c6 70 be 6d 8d 09 3d 92 76 fa 3c
       0.05600446 -0.23513041 0.03358214 0.030574117
000270 df 3c 83 3e f0 ca dd 3d 95 76 19 3e 89 b7 74 be
       0.25632378 0.10829723 0.14986642 -0.23898138
000280 97 53 35 be 90 e8 83 3e e4 60 2c 3e bc 63 2f 3d
       -0.17707668 0.2576337 0.16833836 0.042819723
000290 fe 07 c5 be 01 c6 61 3e fe 9d 85 3e a7 07 90 be
       -0.3848266 0.22048189 0.260971 -0.28130838
0002a0 81 18 8c bd 0c 66 73 be d6 2c 04 bf cb 77 1e 3d
       -0.06840611 -0.23769397 -0.51630914 0.038688462
0002b0 b8 cf ab bd 8a 41 6b 3e ea ac 50 3e d1 b5 86 3e
       -0.083892286 0.2297422 0.20378461 0.2631059
0002c0 fd 2e 74 3e 84 85 e2 3d 53 bb e0 bc ba 6d 84 3e
       0.2384605 0.11060622 -0.027433073 0.25864965
0002d0 53 55 97 bd 51 f6 02 3d 32 81 f2 bd d5 b9 57 be
       -0.07389321 0.031973187 -0.11841048 -0.21066983
0002e0 6a e6 cb bd 7a 72 e8 bd 4e 86 f9 3b 54 b5 26 be
       -0.09956057 -0.1134996 0.0076148873 -0.16280109
0002f0 b2 d9 ba bd 59 86 d8 3d e4 79 78 3e a8 58 03 be
       -0.09123553 0.105725 0.24265248 -0.12826788
000300 1c 58 87 3e 8a c1 ef 3e 01 e4 f1 3c fc fd 01 3c
       0.2643441 0.46827346 0.029527666 0.00793409
000310 8a eb b6 3d 4e f0 a1 3d 99 a0 d0 3e 95 50 50 bd
       0.08931644 0.079071626 0.40747526 -0.0508581
000320 52 60 a1 be e8 ed 8f 3e 1b 46 81 bd cb a5 eb 3c
       -0.315188 0.28111196 -0.063122 0.02876558
000330 11 74 e6 bd 64 3e 6d be 9c 9d 06 3c 24 2d d8 3e
       -0.11252607 -0.23168331 0.008216288 0.4222194
000340 b6 c6 63 be d9 cb d0 bb ea a0 8f bd 24 68 50 be
       -0.22243771 -0.006371957 -0.07013114 -0.20352226
000350 c7 a0 bb 3e 53 b7 94 bd ef e4 5b 3e 0e 80 56 be
       0.366461 -0.07261529 0.2147405 -0.20947286
000360 09 13 17 3e 96 b2 99 bd b1 e6 36 be 7d 89 dc 3d
       0.14753355 -0.07504766 -0.1786144 0.10768411
000370 1a b1 5e be ca ad 13 be 0b 5d 06 3d c2 65 37 be
       -0.21747246 -0.14421764 0.032803576 -0.17909911
000380 ac fc b4 3d 8d 57 6e be 55 0a 57 3e 80 ed 2e bd
       0.08837256 -0.23275585 0.21000035 -0.042706966
000390 35 bc a3 be db 01 11 be 68 bf d7 3c a7 f4 be bd
       -0.31979528 -0.14160864 0.026336387 -0.093240075
0003a0 eb e2 0a be 9b 72 20 3e c7 95 8b be f5 b7 9f 3e
       -0.13563125 0.15668719 -0.2726271 0.31195036
0003b0 44 ea a9 bc f6 10 15 bc 8e 2c 2a bf ae 0f 9f 3d
       -0.02074159 -0.009098282 -0.66474235 0.077666625
0003c0 58 b7 22 be 3a c1 91 3e 50 fd b5 be af 8c aa 3e
       -0.15890253 0.28467733 -0.35544825 0.33310458
0003d0 17 d8 a4 bd 30 6f 37 be f5 60 8e bd 5d b2 7c 3d
       -0.08049028 -0.17913508 -0.06952087 0.061693538
0003e0 f2 fe 22 3d 1f 6d 39 be 29 40 73 3e 61 5e c7 3b
       0.039793916 -0.18108033 0.23754944 0.006084249
0003f0 b6 c4 85 3e af 6a 74 bc 66 a9 dd 3e 5f 65 ca 3e
       0.2612664 -0.0149180135 0.43293303 0.39530465

arith.constant3 f4 [32]
000000 3a 90 11 bc be 26 7a 3d da 63 cb bb 07 fd 2f 3d
       -0.008884484 0.061072104 -0.0062069716 0.042965915
000010 5f 8d 1d 3e 30 2e a1 3d 1f 3d 45 bd 45 5c f2 bb
       0.1538596 0.07870138 -0.048153993 -0.0073962533
000020 96 03 8a 3c 77 eb db bb ec a5 ae 3d a5 dd 07 3e
       0.016847413 -0.006711419 0.08527741 0.13268144
000030 75 93 1c 3d 7f f3 5c 3c 07 9b 22 3d f5 0c 06 3e
       0.038226563 0.013485788 0.039698627 0.1309088
000040 a4 8a e6 bc 21 c0 6e 3d f8 93 a1 b9 5c a1 aa bc
       -0.02814228 0.058288697 -0.00030818558 -0.020828895
000050 6f cb 27 3d f1 51 de 3d ac 4d 7d 3d ab f5 d4 bc
       0.040965494 0.10855473 0.06184165 -0.02599605
000060 e8 d1 98 bb 51 59 62 3d b7 5a 49 3d a5 f6 2e 3c
       -0.0046636946 0.05526096 0.049158778 0.010678922
000070 3b d2 df 3d 6d 71 aa bc 1e c3 09 3d 70 7b 9f 3d
       0.1092877 -0.020806039 0.033633344 0.07787216

sequential_1_1/dense_3_1/BiasAdd/ReadVariableOp f4 [64]
000000 45 a6 0b 3e aa 08 63 3d d0 ac 61 3e e5 4c ed 3d
       0.13637646 0.055428185 0.22038579 0.11586932
000010 72 a7 f7 3c c8 e9 53 3d e8 fc 90 3d 72 9d 0c 3e
       0.030231211 0.051736623 0.07079488 0.13731936
000020 d6 43 24 bd f0 1f d1 3d 3f 0b 3f 3c ff 4a 92 3d
       -0.040103756 0.1021117 0.011660396 0.071432106
000030 ef 29 92 bc 9c b3 86 bc b2 3c 04 3c 32 50 9d 3d
       -0.017842261 -0.016443066 0.0080711115 0.07681312
000040 65 c2 c9 3c af 46 e9 3d 98 0f d8 3d a3 d9 f7 3c
       0.024628827 0.11390435 0.10549849 0.030255144
000050 43 8f 59 3d 10 38 fa 3c c2 79 fe 3d 38 50 a4 bd
       0.05311514 0.03054431 0.12425567 -0.08023113
000060 80 85 e4 3d 8b 28 c2 bd 50 72 42 ba c4 89 0a 3e
       0.111582756 -0.09480389 -0.00074175466 0.13529116
000070 59 dd d4 3d 54 6d 94 3d 0a 49 87 3d 13 24 4d bd
       0.10393781 0.07247415 0.06605728 -0.05008323
000080 a9 25 5f 3e 92 ee 27 bd d9 94 b6 bc b5 1e db 3d
       0.2179171 -0.040999003 -0.022287773 0.10699216
000090 9b b2 cc bd 6d 1d e0 3d 83 d0 00 3d fc a7 25 3d
       -0.09995004 0.109431125 0.031448852 0.040443406
0000a0 5b de 36 3d 32 64 e2 bc 39 15 2d 3e d3 ae ff 3d
       0.04464565 -0.027635667 0.16902627 0.12484517
0000b0 e2 c3 5b bd f7 50 b7 3b 06 de 22 3e 27 ba 40 bd
       -0.053653605 0.0055943686 0.15905008 -0.04705253
0000c0 e9 5e 01 3e ee 04 96 3c e8 11 db bb 41 61 df bc
       0.12633862 0.018312898 -0.006685484 -0.027268054
0000d0 48 c8 ac 3d e5 2d af 3d 9a 6c 42 3d d4 08 cb 3d
       0.08436638 0.085536756 0.04746685 0.09913793
0000e0 d6 39 d3 bb b9 aa 3f 3e 54 21 d6 bc 8c 67 a6 3d
       -0.0064461036 0.1871747 -0.026138939 0.08125219
0000f0 15 8b f8 3c 92 55 0d 3e 67 13 b3 bc 63 42 9f 3d
       0.030339757 0.13802174 -0.021859838 0.07776334

sequential_1_1/dense_3_1/MatMul f4 [64, 13]
000000 be 5d ea 3c 9f 85 ab 3d 1d 1c 3d be 72 29 77 be
       0.028609153 0.083750956 -0.18467756 -0.24136904
000010 7d 43 ca 3d 6e fb 98 bd cc f4 06 bf 66 16 8d 3e
       0.098761536 -0.074698314 -0.5271728 0.2755615
000020 2f 4a 86 bd b3 a7 5e be dd 04 09 be 1a 4b b5 3d
       -0.06557118 -0.2174366 -0.13380761 0.08852215
000030 40 20 15 be 86 22 79 bc 36 a5 7f 3d b2 cf f3 bd
       -0.14563084 -0.015205985 0.062413417 -0.11904849
000040 f4 5c d7 3b 5f b0 87 be 3a 68 5e bd d2 bf 7d be
       0.00657236 -0.26501748 -0.054298617 -0.24780205
000050 d3 e4 2d 3d 1c fd 3d bd 16 35 14 be b6 e0 80 be
       0.042454552 -0.046383962 -0.14473376 -0.2517144
000060 bf 3e f2 be cd 1b 98 bd 17 1a 8e be 2f d1 27 3d
       -0.47313496 -0.074271776 -0.2775428 0.040970977
000070 5c 72 0a be 0a 4f c6 be 7f 77 a6 bd 8d d5 ff bd
       -0.13520187 -0.38732177 -0.08128261 -0.124919035
000080 a4 9a 98 3d 06 bd 86 be 3d 66 71 3e a2 2f 82 3e
       0.0745137 -0.26316088 0.23574157 0.25426966
000090 f4 1d 06 be 65 77 89 bb 70 f3 69 be 87 38 00 3d
       -0.13097364 -0.004195141 -0.2284677 0.03130391
0000a0 f8 21 04 3e dc 3d a2 be 92 fa 04 3e 21 9b ff bd
       0.12903583 -0.3168782 0.1298621 -0.1248076
0000b0 0d 1f e2 bc 8f 84 8d 3e c8 ff bf be 1b 83 89 3d
       -0.027602697 0.27640197 -0.37499833 0.067144595
0000c0 45 91 ca bd 73 a6 98 be 43 7d 1c 3e e4 a5 99 3e
       -0.09890989 -0.2981449 0.15282159 0.30009377
0000d0 6d 8e 2b be b7 92 79 be 82 f5 94 3e 45 7d 93 3e
       -0.1675355 -0.24372374 0.29093558 0.2880651
0000e0 d1 bc 99 bd 7a f1 3b bc a6 a0 5f be c5 e2 c2 be
       -0.07506717 -0.011471147 -0.21838626 -0.38063636
0000f0 6b 1c 67 bd 26 b2 82 3d 1f de 0b 3e fd df 85 be
       -0.056423586 0.06381635 0.13658951 -0.26147452
000100 89 ee 68 bc ec 10 ac be a5 b0 05 3f 76 48 ce be
       -0.014217027 -0.3360666 0.52222663 -0.40289658
000110 46 9c 5d 3e 48 57 21 be 77 c7 32 3e 98 78 8c be
       0.21641645 -0.15755951 0.17458902 -0.27435756
000120 08 77 18 3d 05 0e 42 3d 17 e2 5b be 77 f3 fb 3d
       0.037222892 0.04737665 -0.21472965 0.123022966
000130 cf 92 18 3e ee cb 3a be 1a 59 27 3e 1b d4 ac 3e
       0.14899753 -0.18241856 0.16342583 0.33755574
000140 fc b4 0b be 7f 5c 09 3e 6c 5c 6c be 1d 51 3c be
       -0.13643259 0.1341419 -0.23082131 -0.18390317
000150 05 c6 e9 bd 3e 3f e8 bd d7 96 ab 3e b8 9d 95 3e
       -0.11414722 -0.113401875 0.3351352 0.29221892
000160 2e b5 2e 3e 98 68 ea be cb 26 7e be da 9d c1 3e
       0.17061302 -0.45782924 -0.24819486 0.37815744
000170 8d 46 7d bc 07 2a 0c 3e a3 aa af be 06 61 03 3e
       -0.015458715 0.13687907 -0.34309873 0.1282998
000180 07 16 70 be 9a 10 ac be 35 81 32 3e 99 b1 99 bd
       -0.23445903 -0.33606416 0.17432101 -0.07504577
000190 b8 06 d2 3e 17 43 3c 3c 8a 75 c5 bd ea 52 a8 bd
       0.4102075 0.011490605 -0.096415594 -0.082189396
0001a0 10 39 b9 bd a1 8f a2 3e cc 45 d1 be af 84 21 3e
       -0.09044087 0.31750205 -0.40873563 0.15773271
0001b0 50 17 5f be c7 ad 14 be bf 10 b7 3d 7d bd 1d be
       -0.21786237 -0.14519416 0.08938741 -0.15404315
0001c0 31 66 8f 3e 0d e0 66 be 92 06 06 bd 5e 16 ac 3e
       0.28007653 -0.22546406 -0.03272111 0.33610815
0001d0 7d 80 54 be e3 63 aa 3e 92 5a 79 be ed a3 9c be
       -0.2075214 0.33279333 -0.24350956 -0.30593815
0001e0 26 dd 86 be bb c8 65 be 7f 37 9e be 77 fd 20 3e
       -0.26340598 -0.22439854 -0.30901715 0.15721689
0001f0 51 34 2f be a4 af 99 bd 8a d6 83 bd b8 db 60 3e
       -0.17109801 -0.07504204 -0.064374045 0.21958816
000200 f7 b8 63 be 98 1d 55 be a8 97 df bd 0f 4b 3e be
       -0.22238527 -0.2081207 -0.10917598 -0.1858332
000210 40 21 a2 3e c5 8b 91 3e 94 3b 0a be 14 77 1e 3e
       0.31665993 0.28426948 -0.1349929 0.15475112
000220 be 36 ad be f8 0a 4f 3e 63 c5 bf 3d 53 4a ac 3e
       -0.33830827 0.20219028 0.093638204 0.33650455
000230 be 74 95 be d9 d6 13 3d 28 46 82 3e 1a d9 f4 bb
       -0.2919063 0.036093567 0.2544415 -0.0074721696
000240 41 f9 66 3e 54 dd 4f be fc e5 14 bd 94 1d 8d be
       0.2255602 -0.20299274 -0.036352143 -0.2756163
000250 52 f2 c8 3d f0 5b b2 3d f4 9c 38 bd 50 57 62 3e
       0.09811844 0.08708942 -0.045071557 0.2210362
000260 97 c3 0f 3e c4 b4 5b be ec 7c 40 3e 75 a4 4d bd
       0.14039455 -0.21455675 0.18797654 -0.050205667
000270 13 ab 97 3b 9d 01 f7 bc d5 a4 9d 3d 98 79 40 3e
       0.004628548 -0.030152136 0.07697455 0.18796384
000280 c7 c1 33 be 88 ec 4f bc 9b 98 c4 3e dc e1 93 3e
       -0.17554389 -0.012690671 0.3839768 0.28883255
000290 fd 65 14 be 6f 6b b0 3b 4f 4b 68 3e 05 06 8f 3e
       -0.1449203 0.005383901 0.22684978 0.2793428
0002a0 74 66 6c 3e 6c 18 94 3e ea 32 54 bb 1e 20 b8 3e
       0.23085958 0.28924882 -0.003237898 0.35962003
0002b0 d0 b4 4e 3e a5 c9 1a be 7b e4 0b be 3f 4b e6 3d
       0.20186162 -0.15115984 -0.13661377 0.11244821
0002c0 d1 81 46 be 4d 6c ef 3c f5 b8 9b 3e 77 1e 55 be
       -0.19385459 0.029226447 0.3041455 -0.20812403
0002d0 e5 31 63 bd b4 3f c3 be 8a 7c a5 3e 6b f1 f0 3d
       -0.055467505 -0.3813454 0.32321578 0.11764797
0002e0 79 85 8c be 1a 49 c0 bc ba 72 c9 bd 53 dc 78 3e
       -0.27445582 -0.023472358 -0.098363355 0.24302797
0002f0 43 f8 47 3d 7d ac 8f 3e 3f 81 dc 3e 83 d0 e2 3e
       0.048820745 0.28061286 0.43067357 0.44299707
000300 1e 48 e5 bd 29 a1 ea 3d fc 7f aa be 43 c1 0f 3d
       -0.11195396 0.1145652 -0.3330077 0.035096418
000310 83 51 92 be 4d 17 93 3e 08 78 c7 3d 72 1f 5b be
       -0.28577814 0.28728715 0.09739691 -0.21398714
000320 80 83 cf bb db db be bc 57 2a 76 be 06 70 72 bd
       -0.0063328147 -0.023298195 -0.24039589 -0.059188865
000330 56 90 c3 3c 33 7e f5 3e 06 0a 85 3e 05 da 26 ba
       0.023872536 0.47947845 0.2598421 -0.0006364885
000340 d1 57 9a 3e 05 39 86 be 7b 65 12 be ea 40 34 bc
       0.30145124 -0.26215377 -0.14296524 -0.011001805
000350 1a d3 b3 3e 2e 01 82 be 78 37 76 3e ce 4b 8f 3e
       0.35121995 -0.25391525 0.24044597 0.27987522
000360 7d 97 0d be f1 4b 5b 3e 0b 91 3f 3e 10 aa 9c be
       -0.1382732 0.21415688 0.18707673 -0.30598497
000370 d1 7c 49 be 8c af ca be 07 a1 21 be 7d 2d 2c bc
       -0.1967652 -0.39587057 -0.15784083 -0.010508892
000380 71 9d fa bd 16 cd 47 3e 23 a7 30 3e 07 cf a4 be
       -0.12237061 0.19511828 0.17251258 -0.321892
000390 49 56 cf 3c ca 43 61 3d 84 ab 11 3e 8e f3 b5 3e
       0.025309699 0.05499629 0.14225584 0.3553738
0003a0 a8 5b a0 3d 00 c6 5c 3e 4d 16 e4 be 00 a8 67 be
       0.07829982 0.21559906 -0.44548264 -0.2262268
0003b0 6c ef 15 3e 10 f7 70 be f8 01 3c be d5 19 d0 be
       0.14642113 -0.23531747 -0.18360126 -0.40644708
0003c0 76 6d 86 bd c8 a2 37 3d ec 11 ae be 10 c9 fd 3d
       -0.06563847 0.044832975 -0.33998048 0.12391865
0003d0 34 e4 0f 3e 3c cf ed 3d 38 ab 80 3e a0 22 cb 3e
       0.14051896 0.116117924 0.2513063 0.39674854
0003e0 fd 5b 47 3e 9e 4e 91 3b 19 71 de 3d db 99 8b 3e
       0.19468684 0.0044344207 0.108614154 0.2726582
0003f0 36 aa 59 3d 71 24 c0 bd d8 ee 30 be 01 89 9e be
       0.05314084 -0.09381951 -0.17278612 -0.309639
